…
2022-04-14 14:16:05.976652: I tensorflow/compiler/xla/service/service.cc:168] XLA service 0x1d9d12722a0 initialized for platform Host (this does not guarantee that XLA will be used). Devices:
2022-04-14 14:16:05.976996: I tensorflow/compiler/xla/service/service.cc:176]   StreamExecutor device (0): Host, Default Version
Found 305 files belonging to 3 classes.
['apple', 'banana', 'pear']
Model: "sequential"
_________________________________________________________________
Layer (type)                 Output Shape              Param #
=================================================================
rescaling (Rescaling)        (None, 224, 224, 3)       0
_________________________________________________________________
conv2d (Conv2D)              (None, 222, 222, 32)      896
_________________________________________________________________
max_pooling2d (MaxPooling2D) (None, 111, 111, 32)      0
_________________________________________________________________
conv2d_1 (Conv2D)            (None, 109, 109, 64)      18496
_________________________________________________________________
max_pooling2d_1 (MaxPooling2 (None, 54, 54, 64)        0
_________________________________________________________________
flatten (Flatten)            (None, 186624)            0
_________________________________________________________________
dense (Dense)                (None, 128)               23888000
_________________________________________________________________
dense_1 (Dense)              (None, 3)                 387
=================================================================
Total params: 23,907,779
Trainable params: 23,907,779
Non-trainable params: 0
_________________________________________________________________
Epoch 1/30
411/411 [==============================] - 74s 180ms/step - loss: 0.3805 - accuracy: 0.8556 - val_loss: 0.2566 - val_accuracy: 0.9148
Epoch 2/30
411/411 [==============================] - 70s 170ms/step - loss: 0.1962 - accuracy: 0.9213 - val_loss: 0.0535 - val_accuracy: 0.9803
…
